…
<span class="bp">self</span> <span class="o">=</span> <span class="n">ALOCC_Model</span><span class="p">(</span><span class="n">dataset_name</span><span class="o">=</span><span class="s">'mnist'</span><span class="p">,</span> <span class="n">input_height</span><span class="o">=</span><span class="mi">28</span><span class="p">,</span><span class="n">input_width</span><span class="o">=</span><span class="mi">28</span><span class="p">)</span>
<span class="c1">#build alocc model
</span></code></pre></div></div>

<div class="language-plaintext highlighter-rouge"><div class="highlight"><pre class="highlight"><code>generator
Model: "R"
_________________________________________________________________
Layer (type)                 Output Shape              Param #   
=================================================================
z (InputLayer)               (None, 28, 28, 1)         0         
_________________________________________________________________
g_encoder_h0_conv (Conv2D)   (None, 14, 14, 32)        832       
_________________________________________________________________
batch_normalization_10 (Batc (None, 14, 14, 32)        128       
_________________________________________________________________
leaky_re_lu_12 (LeakyReLU)   (None, 14, 14, 32)        0         
_________________________________________________________________
g_encoder_h1_conv (Conv2D)   (None, 7, 7, 64)          51264     
_________________________________________________________________
batch_normalization_11 (Batc (None, 7, 7, 64)          256       
_________________________________________________________________
leaky_re_lu_13 (LeakyReLU)   (None, 7, 7, 64)          0         
_________________________________________________________________
g_encoder_h2_conv (Conv2D)   (None, 4, 4, 128)         204928    
_________________________________________________________________
batch_normalization_12 (Batc (None, 4, 4, 128)         512       
_________________________________________________________________
leaky_re_lu_14 (LeakyReLU)   (None, 4, 4, 128)         0         
_________________________________________________________________
conv2d_5 (Conv2D)            (None, 4, 4, 16)          51216     
_________________________________________________________________
up_sampling2d_4 (UpSampling2 (None, 8, 8, 16)          0         
_________________________________________________________________
conv2d_6 (Conv2D)            (None, 8, 8, 16)          6416      
_________________________________________________________________
up_sampling2d_5 (UpSampling2 (None, 16, 16, 16)        0         
_________________________________________________________________
conv2d_7 (Conv2D)            (None, 14, 14, 32)        4640      
_________________________________________________________________
up_sampling2d_6 (UpSampling2 (None, 28, 28, 32)        0         
_________________________________________________________________
conv2d_8 (Conv2D)            (None, 28, 28, 1)         801       
=================================================================
Total params: 320,993
Trainable params: 320,545
Non-trainable params: 448
_________________________________________________________________

discriminator
Model: "D"
_________________________________________________________________
Layer (type)                 Output Shape              Param #   
=================================================================
d_input (InputLayer)         (None, 28, 28, 1)         0         
_________________________________________________________________
d_h0_conv (Conv2D)           (None, 14, 14, 16)        416       
_________________________________________________________________
leaky_re_lu_8 (LeakyReLU)    (None, 14, 14, 16)        0         
_________________________________________________________________
d_h1_conv (Conv2D)           (None, 7, 7, 32)          12832     
_________________________________________________________________
batch_normalization_7 (Batch (None, 7, 7, 32)          128       
_________________________________________________________________
leaky_re_lu_9 (LeakyReLU)    (None, 7, 7, 32)          0         
_________________________________________________________________
d_h2_conv (Conv2D)           (None, 4, 4, 64)          51264     
_________________________________________________________________
batch_normalization_8 (Batch (None, 4, 4, 64)          256       
_________________________________________________________________
leaky_re_lu_10 (LeakyReLU)   (None, 4, 4, 64)          0         
_________________________________________________________________
d_h3_conv (Conv2D)           (None, 2, 2, 128)         204928    
_________________________________________________________________
batch_normalization_9 (Batch (None, 2, 2, 128)         512       
_________________________________________________________________
leaky_re_lu_11 (LeakyReLU)   (None, 2, 2, 128)         0         
_________________________________________________________________
flatten_2 (Flatten)          (None, 512)               0         
_________________________________________________________________
d_h3_lin (Dense)             (None, 1)                 513       
=================================================================
Total params: 541,250
Trainable params: 270,401
Non-trainable params: 270,849
_________________________________________________________________

adversarial_model
Model: "model_2"
_________________________________________________________________
Layer (type)                 Output Shape              Param #   
=================================================================
input_2 (InputLayer)         (None, 28, 28, 1)         0         
_________________________________________________________________
R (Model)                    (None, 28, 28, 1)         320993    
_________________________________________________________________
D (Model)                    (None, 1)                 270849    
=================================================================
Total params: 591,842
Trainable params: 320,545
Non-trainable params: 271,297
_________________________________________________________________
</code></pre></div></div>

<h2 id="training">Training</h2>

<div class="language-python highlighter-rouge"><div class="highlight"><pre class="highlight"><code><span class="bp">self</spa
…
<span class="bp">self</span> <span class="o">=</span> <span class="n">ALOCC_Model</span><span class="p">(</span><span class="n">dataset_name</span><span class="o">=</span><span class="s">'mnist'</span><span class="p">,</span> <span class="n">input_height</span><span class="o">=</span><span class="mi">28</span><span class="p">,</span><span class="n">input_width</span><span class="o">=</span><span class="mi">28</span><span class="p">)</span>
</code></pre></div></div>

<div class="language-plaintext highlighter-rouge"><div class="highlight"><pre class="highlight"><code>generator
Model: "R"
_________________________________________________________________
Layer (type)                 Output Shape              Param #   
=================================================================
z (InputLayer)               (None, 28, 28, 1)         0         
_________________________________________________________________
g_encoder_h0_conv (Conv2D)   (None, 14, 14, 32)        832       
_________________________________________________________________
batch_normalization_70 (Batc (None, 14, 14, 32)        128       
_________________________________________________________________
leaky_re_lu_82 (LeakyReLU)   (None, 14, 14, 32)        0         
_________________________________________________________________
g_encoder_h1_conv (Conv2D)   (None, 7, 7, 64)          51264     
_________________________________________________________________
batch_normalization_71 (Batc (None, 7, 7, 64)          256       
_________________________________________________________________
leaky_re_lu_83 (LeakyReLU)   (None, 7, 7, 64)          0         
_________________________________________________________________
g_encoder_h2_conv (Conv2D)   (None, 4, 4, 128)         204928    
_________________________________________________________________
batch_normalization_72 (Batc (None, 4, 4, 128)         512       
_________________________________________________________________
leaky_re_lu_84 (LeakyReLU)   (None, 4, 4, 128)         0         
_________________________________________________________________
conv2d_45 (Conv2D)           (None, 4, 4, 16)          51216     
_________________________________________________________________
up_sampling2d_34 (UpSampling (None, 8, 8, 16)          0         
_________________________________________________________________
conv2d_46 (Conv2D)           (None, 8, 8, 16)          6416      
_________________________________________________________________
up_sampling2d_35 (UpSampling (None, 16, 16, 16)        0         
_________________________________________________________________
conv2d_47 (Conv2D)           (None, 14, 14, 32)        4640      
_________________________________________________________________
up_sampling2d_36 (UpSampling (None, 28, 28, 32)        0         
_________________________________________________________________
conv2d_48 (Conv2D)           (None, 28, 28, 1)         801       
=================================================================
Total params: 320,993
Trainable params: 320,545
Non-trainable params: 448
_________________________________________________________________

discriminator
Model: "D"
_________________________________________________________________
Layer (type)                 Output Shape              Param #   
=================================================================
d_input (InputLayer)         (None, 28, 28, 1)         0         
_________________________________________________________________
d_h0_conv (Conv2D)           (None, 14, 14, 16)        416       
_________________________________________________________________
leaky_re_lu_78 (LeakyReLU)   (None, 14, 14, 16)        0         
_________________________________________________________________
d_h1_conv (Conv2D)           (None, 7, 7, 32)          12832     
_________________________________________________________________
batch_normalization_67 (Batc (None, 7, 7, 32)          128       
_________________________________________________________________
leaky_re_lu_79 (LeakyReLU)   (None, 7, 7, 32)          0         
_________________________________________________________________
d_h2_conv (Conv2D)           (None, 4, 4, 64)          51264     
_________________________________________________________________
batch_normalization_68 (Batc (None, 4, 4, 64)          256       
_________________________________________________________________
leaky_re_lu_80 (LeakyReLU)   (None, 4, 4, 64)          0         
_________________________________________________________________
d_h3_conv (Conv2D)           (None, 2, 2, 128)         204928    
_________________________________________________________________
batch_normalization_69 (Batc (None, 2, 2, 128)         512       
_________________________________________________________________
leaky_re_lu_81 (LeakyReLU)   (None, 2, 2, 128)         0         
_________________________________________________________________
flatten_12 (Flatten)         (None, 512)               0         
_________________________________________________________________
dense_4 (Dense)              (None, 32)                16416     
_________________________________________________________________
d_h3_lin (Dense)             (None, 1)                 33        
=================================================================
Total params: 573,122
Trainable params: 286,337
Non-trainable params: 286,785
_________________________________________________________________

adversarial_model
Model: "model_12"
_________________________________________________________________
Layer (type)                 Output Shape              Param #   
=================================================================
input_12 (InputLayer)        (None, 28, 28, 1)         0         
_________________________________________________________________
R (Model)                    (None, 28, 28, 1)         320993    
_________________________________________________________________
D (Model)                    (None, 1)                 286785    
=================================================================
Total params: 607,778
Trainable params: 320,545
Non-trainable params: 287,233
_________________________________________________________________


/home/dolphin/.virtualenvs/bio/lib/python3.6/site-packages/keras/engine/training.py:297: UserWarning: Discrepancy between trainable weights and collected trainable weights, did you set `model.trainable` without calling `model.compile` after ?
…
