…
uot;&gt;28&lt;/span&gt;&lt;span class=&quot;p&quot;&gt;)&lt;/span&gt;
&lt;span class=&quot;c1&quot;&gt;#build alocc model
&lt;/span&gt;&lt;/code&gt;&lt;/pre&gt;&lt;/div&gt;&lt;/div&gt;

&lt;div class=&quot;language-plaintext highlighter-rouge&quot;&gt;&lt;div class=&quot;highlight&quot;&gt;&lt;pre class=&quot;highlight&quot;&gt;&lt;code&gt;generator
Model: &quot;R&quot;
_________________________________________________________________
Layer (type)                 Output Shape              Param #   
=================================================================
z (InputLayer)               (None, 28, 28, 1)         0         
_________________________________________________________________
g_encoder_h0_conv (Conv2D)   (None, 14, 14, 32)        832       
_________________________________________________________________
batch_normalization_10 (Batc (None, 14, 14, 32)        128       
_________________________________________________________________
leaky_re_lu_12 (LeakyReLU)   (None, 14, 14, 32)        0         
_________________________________________________________________
g_encoder_h1_conv (Conv2D)   (None, 7, 7, 64)          51264     
_________________________________________________________________
batch_normalization_11 (Batc (None, 7, 7, 64)          256       
_________________________________________________________________
leaky_re_lu_13 (LeakyReLU)   (None, 7, 7, 64)          0         
_________________________________________________________________
g_encoder_h2_conv (Conv2D)   (None, 4, 4, 128)         204928    
_________________________________________________________________
batch_normalization_12 (Batc (None, 4, 4, 128)         512       
_________________________________________________________________
leaky_re_lu_14 (LeakyReLU)   (None, 4, 4, 128)         0         
_________________________________________________________________
conv2d_5 (Conv2D)            (None, 4, 4, 16)          51216     
_________________________________________________________________
up_sampling2d_4 (UpSampling2 (None, 8, 8, 16)          0         
_________________________________________________________________
conv2d_6 (Conv2D)            (None, 8, 8, 16)          6416      
_________________________________________________________________
up_sampling2d_5 (UpSampling2 (None, 16, 16, 16)        0         
_________________________________________________________________
conv2d_7 (Conv2D)            (None, 14, 14, 32)        4640      
_________________________________________________________________
up_sampling2d_6 (UpSampling2 (None, 28, 28, 32)        0         
_________________________________________________________________
conv2d_8 (Conv2D)            (None, 28, 28, 1)         801       
=================================================================
Total params: 320,993
Trainable params: 320,545
Non-trainable params: 448
_________________________________________________________________

discriminator
Model: &quot;D&quot;
_________________________________________________________________
Layer (type)                 Output Shape              Param #   
=================================================================
d_input (InputLayer)         (None, 28, 28, 1)         0         
_________________________________________________________________
d_h0_conv (Conv2D)           (None, 14, 14, 16)        416       
_________________________________________________________________
leaky_re_lu_8 (LeakyReLU)    (None, 14, 14, 16)        0         
_________________________________________________________________
d_h1_conv (Conv2D)           (None, 7, 7, 32)          12832     
_________________________________________________________________
batch_normalization_7 (Batch (None, 7, 7, 32)          128       
_________________________________________________________________
leaky_re_lu_9 (LeakyReLU)    (None, 7, 7, 32)          0         
_________________________________________________________________
d_h2_conv (Conv2D)           (None, 4, 4, 64)          51264     
_________________________________________________________________
batch_normalization_8 (Batch (None, 4, 4, 64)          256       
_________________________________________________________________
leaky_re_lu_10 (LeakyReLU)   (None, 4, 4, 64)          0         
_________________________________________________________________
d_h3_conv (Conv2D)           (None, 2, 2, 128)         204928    
_________________________________________________________________
batch_normalization_9 (Batch (None, 2, 2, 128)         512       
_________________________________________________________________
leaky_re_lu_11 (LeakyReLU)   (None, 2, 2, 128)         0         
_________________________________________________________________
flatten_2 (Flatten)          (None, 512)               0         
_________________________________________________________________
d_h3_lin (Dense)             (None, 1)                 513       
=================================================================
Total params: 541,250
Trainable params: 270,401
Non-trainable params: 270,849
_________________________________________________________________

adversarial_model
Model: &quot;model_2&quot;
_________________________________________________________________
Layer (type)                 Output Shape              Param #   
=================================================================
input_2 (InputLayer)         (None, 28, 28, 1)         0         
_________________________________________________________________
R (Model)                    (None, 28, 28, 1)         320993    
_________________________________________________________________
D (Model)                    (None, 1)                 270849    
=================================================================
Total params: 591,842
Trainable params: 320,545
Non-trainable params: 271,297
_________________________________________________________________
&lt;/code&gt;&lt;/pre&gt;&lt;/div&gt;&lt;/div&gt;

&lt;h2 id=&quot;training&quot;&gt;Training&lt;/h2&gt;

&lt;div class=&quot;language-python highlighter-rouge&quot;&gt;&lt;div class=&q
…
an class=&quot;o&quot;&gt;=&lt;/span&gt;&lt;span class=&quot;mi&quot;&gt;28&lt;/span&gt;&lt;span class=&quot;p&quot;&gt;)&lt;/span&gt;
&lt;/code&gt;&lt;/pre&gt;&lt;/div&gt;&lt;/div&gt;

&lt;div class=&quot;language-plaintext highlighter-rouge&quot;&gt;&lt;div class=&quot;highlight&quot;&gt;&lt;pre class=&quot;highlight&quot;&gt;&lt;code&gt;generator
Model: &quot;R&quot;
_________________________________________________________________
Layer (type)                 Output Shape              Param #   
=================================================================
z (InputLayer)               (None, 28, 28, 1)         0         
_________________________________________________________________
g_encoder_h0_conv (Conv2D)   (None, 14, 14, 32)        832       
_________________________________________________________________
batch_normalization_70 (Batc (None, 14, 14, 32)        128       
_________________________________________________________________
leaky_re_lu_82 (LeakyReLU)   (None, 14, 14, 32)        0         
_________________________________________________________________
g_encoder_h1_conv (Conv2D)   (None, 7, 7, 64)          51264     
_________________________________________________________________
batch_normalization_71 (Batc (None, 7, 7, 64)          256       
_________________________________________________________________
leaky_re_lu_83 (LeakyReLU)   (None, 7, 7, 64)          0         
_________________________________________________________________
g_encoder_h2_conv (Conv2D)   (None, 4, 4, 128)         204928    
_________________________________________________________________
batch_normalization_72 (Batc (None, 4, 4, 128)         512       
_________________________________________________________________
leaky_re_lu_84 (LeakyReLU)   (None, 4, 4, 128)         0         
_________________________________________________________________
conv2d_45 (Conv2D)           (None, 4, 4, 16)          51216     
_________________________________________________________________
up_sampling2d_34 (UpSampling (None, 8, 8, 16)          0         
_________________________________________________________________
conv2d_46 (Conv2D)           (None, 8, 8, 16)          6416      
_________________________________________________________________
up_sampling2d_35 (UpSampling (None, 16, 16, 16)        0         
_________________________________________________________________
conv2d_47 (Conv2D)           (None, 14, 14, 32)        4640      
_________________________________________________________________
up_sampling2d_36 (UpSampling (None, 28, 28, 32)        0         
_________________________________________________________________
conv2d_48 (Conv2D)           (None, 28, 28, 1)         801       
=================================================================
Total params: 320,993
Trainable params: 320,545
Non-trainable params: 448
_________________________________________________________________

discriminator
Model: &quot;D&quot;
_________________________________________________________________
Layer (type)                 Output Shape              Param #   
=================================================================
d_input (InputLayer)         (None, 28, 28, 1)         0         
_________________________________________________________________
d_h0_conv (Conv2D)           (None, 14, 14, 16)        416       
_________________________________________________________________
leaky_re_lu_78 (LeakyReLU)   (None, 14, 14, 16)        0         
_________________________________________________________________
d_h1_conv (Conv2D)           (None, 7, 7, 32)          12832     
_________________________________________________________________
batch_normalization_67 (Batc (None, 7, 7, 32)          128       
_________________________________________________________________
leaky_re_lu_79 (LeakyReLU)   (None, 7, 7, 32)          0         
_________________________________________________________________
d_h2_conv (Conv2D)           (None, 4, 4, 64)          51264     
_________________________________________________________________
batch_normalization_68 (Batc (None, 4, 4, 64)          256       
_________________________________________________________________
leaky_re_lu_80 (LeakyReLU)   (None, 4, 4, 64)          0         
_________________________________________________________________
d_h3_conv (Conv2D)           (None, 2, 2, 128)         204928    
_________________________________________________________________
batch_normalization_69 (Batc (None, 2, 2, 128)         512       
_________________________________________________________________
leaky_re_lu_81 (LeakyReLU)   (None, 2, 2, 128)         0         
_________________________________________________________________
flatten_12 (Flatten)         (None, 512)               0         
_________________________________________________________________
dense_4 (Dense)              (None, 32)                16416     
_________________________________________________________________
d_h3_lin (Dense)             (None, 1)                 33        
=================================================================
Total params: 573,122
Trainable params: 286,337
Non-trainable params: 286,785
_________________________________________________________________

adversarial_model
Model: &quot;model_12&quot;
_________________________________________________________________
Layer (type)                 Output Shape              Param #   
=================================================================
input_12 (InputLayer)        (None, 28, 28, 1)         0         
_________________________________________________________________
R (Model)                    (None, 28, 28, 1)         320993    
_________________________________________________________________
D (Model)                    (None, 1)                 286785    
=================================================================
Total params: 607,778
Trainable params: 320,545
Non-trainable params: 287,233
_________________________________________________________________


/home/dolphin/.virtualenvs/bio/lib/python3.6/site-packages/keras/engine/training.py:297: UserWarning: Discrepancy between trainable weights and collected trainable weights, did you set `model.trainable` without calling `model.compile` after ?
…
datasets import mnist from keras.losses import binary_crossentropy from keras import backend as K import numpy as np import matplotlib.pyplot as plt %matplotlib inline (X_train, y_train), (_, _) = mnist.load_data() X_train = X_train / 255 Using TensorFlow backend. from models import ALOCC_Model self = ALOCC_Model(dataset_name='mnist', input_height=28,input_width=28) #build alocc model generator Model: &quot;R&quot; _________________________________________________________________ Layer (type) Output Shape Param # ================================================================= z (InputLayer) (None, 28, 28, 1) 0 _________________________________________________________________ g_encoder_h0_conv (Conv2D) (None, 14, 14, 32) 832 _________________________________________________________________ batch_normalization_10 (Batc (None, 14, 14, 32) 128 _________________________________________________________________ leaky_re_lu_12 (LeakyReLU) (None, 14, 14, 32) 0 _________________________________________________________________ g_encoder_h1_conv (Conv2D) (None, 7, 7, 64) 51264 _________________________________________________________________ batch_normalization_11 (Batc (None, 7, 7, 64) 256 _________________________________________________________________ leaky_re_lu_13 (LeakyReLU) (None, 7, 7, 64) 0 _________________________________________________________________ g_encoder_h2_conv (Conv2D) (None, 4, 4, 128) 204928 _________________________________________________________________ batch_normalization_12 (Batc (None, 4, 4, 128) 512 _________________________________________________________________ leaky_re_lu_14 (LeakyReLU) (None, 4, 4, 128) 0 _________________________________________________________________ conv2d_5 (Conv2D) (None, 4, 4, 16) 51216 _________________________________________________________________ up_sampling2d_4 (UpSampling2 (None, 8, 8, 16) 0 _________________________________________________________________ conv2d_6 (Conv2D) (None, 8, 8, 16) 6416 _________________________________________________________________ up_sampling2d_5 (UpSampling2 (None, 16, 16, 16) 0 _________________________________________________________________ conv2d_7 (Conv2D) (None, 14, 14, 32) 4640 _________________________________________________________________ up_sampling2d_6 (UpSampling2 (None, 28, 28, 32) 0 _________________________________________________________________ conv2d_8 (Conv2D) (None, 28, 28, 1) 801 ================================================================= Total params: 320,993 Trainable params: 320,545 Non-trainable params: 448 _________________________________________________________________ discriminator Model: &quot;D&quot; _________________________________________________________________ Layer (type) Output Shape Param # ================================================================= d_input (InputLayer) (None, 28, 28, 1) 0 _________________________________________________________________ d_h0_conv (Conv2D) (None, 14, 14, 16) 416 _________________________________________________________________ leaky_re_lu_8 (LeakyReLU) (None, 14, 14, 16) 0 _________________________________________________________________ d_h1_conv (Conv2D) (None, 7, 7, 32) 12832 _________________________________________________________________ batch_normalization_7 (Batch (None, 7, 7, 32) 128 _________________________________________________________________ leaky_re_lu_9 (LeakyReLU) (None, 7, 7, 32) 0 _________________________________________________________________ d_h2_conv (Conv2D) (None, 4, 4, 64) 51264 _________________________________________________________________ batch_normalization_8 (Batch (None, 4, 4, 64) 256 _________________________________________________________________ leaky_re_lu_10 (LeakyReLU) (None, 4, 4, 64) 0 _________________________________________________________________ d_h3_conv (Conv2D) (None, 2, 2, 128) 204928 _________________________________________________________________ batch_normalization_9 (Batch (None, 2, 2, 128) 512 _________________________________________________________________ leaky_re_lu_11 (LeakyReLU) (None, 2, 2, 128) 0 _________________________________________________________________ flatten_2 (Flatten) (None, 512) 0 _________________________________________________________________ d_h3_lin (Dense) (None, 1) 513 ================================================================= Total params: 541,250 Trainable params: 270,401 Non-trainable params: 270,849 _________________________________________________________________ adversarial_model Model: &quot;model_2&quot; _________________________________________________________________ Layer (type) Output Shape Param # ================================================================= input_2 (InputLayer) (None, 28, 28, 1) 0 _________________________________________________________________ R (Model) (None, 28, 28, 1) 320993 _________________________________________________________________ D (Model) (None, 1) 270849 ================================================================= Total params: 591,842 Trainable params: 320,545 Non-trainable params: 271,297 _________________________________________________________________ Training self.train(epochs=5, batch_size=128, sample_interval=500) Epoch (0/5)------------------------------------------------- /home/dolphin/.virtualenvs/bio/lib/python3.6/site-packages/ke
…
reconstruction loss: 0.51506275 Average discriminator Output: 0.54887545 draw_histogram() mobiis 추가 연구사항 D 모델을 조금더 복잡하게 구성 R 모델 학습을 조금 더디게 진행 노이즈 없이 학습 1. Enhance D network - Add 1 dense layer import sys import importlib sys.path.insert(1, 'test/enhance_D/') importlib.reload(models) from models import ALOCC_Model self = ALOCC_Model(dataset_name='mnist', input_height=28,input_width=28) generator Model: &quot;R&quot; _________________________________________________________________ Layer (type) Output Shape Param # ================================================================= z (InputLayer) (None, 28, 28, 1) 0 _________________________________________________________________ g_encoder_h0_conv (Conv2D) (None, 14, 14, 32) 832 _________________________________________________________________ batch_normalization_70 (Batc (None, 14, 14, 32) 128 _________________________________________________________________ leaky_re_lu_82 (LeakyReLU) (None, 14, 14, 32) 0 _________________________________________________________________ g_encoder_h1_conv (Conv2D) (None, 7, 7, 64) 51264 _________________________________________________________________ batch_normalization_71 (Batc (None, 7, 7, 64) 256 _________________________________________________________________ leaky_re_lu_83 (LeakyReLU) (None, 7, 7, 64) 0 _________________________________________________________________ g_encoder_h2_conv (Conv2D) (None, 4, 4, 128) 204928 _________________________________________________________________ batch_normalization_72 (Batc (None, 4, 4, 128) 512 _________________________________________________________________ leaky_re_lu_84 (LeakyReLU) (None, 4, 4, 128) 0 _________________________________________________________________ conv2d_45 (Conv2D) (None, 4, 4, 16) 51216 _________________________________________________________________ up_sampling2d_34 (UpSampling (None, 8, 8, 16) 0 _________________________________________________________________ conv2d_46 (Conv2D) (None, 8, 8, 16) 6416 _________________________________________________________________ up_sampling2d_35 (UpSampling (None, 16, 16, 16) 0 _________________________________________________________________ conv2d_47 (Conv2D) (None, 14, 14, 32) 4640 _________________________________________________________________ up_sampling2d_36 (UpSampling (None, 28, 28, 32) 0 _________________________________________________________________ conv2d_48 (Conv2D) (None, 28, 28, 1) 801 ================================================================= Total params: 320,993 Trainable params: 320,545 Non-trainable params: 448 _________________________________________________________________ discriminator Model: &quot;D&quot; _________________________________________________________________ Layer (type) Output Shape Param # ================================================================= d_input (InputLayer) (None, 28, 28, 1) 0 _________________________________________________________________ d_h0_conv (Conv2D) (None, 14, 14, 16) 416 _________________________________________________________________ leaky_re_lu_78 (LeakyReLU) (None, 14, 14, 16) 0 _________________________________________________________________ d_h1_conv (Conv2D) (None, 7, 7, 32) 12832 _________________________________________________________________ batch_normalization_67 (Batc (None, 7, 7, 32) 128 _________________________________________________________________ leaky_re_lu_79 (LeakyReLU) (None, 7, 7, 32) 0 _________________________________________________________________ d_h2_conv (Conv2D) (None, 4, 4, 64) 51264 _________________________________________________________________ batch_normalization_68 (Batc (None, 4, 4, 64) 256 _________________________________________________________________ leaky_re_lu_80 (LeakyReLU) (None, 4, 4, 64) 0 _________________________________________________________________ d_h3_conv (Conv2D) (None, 2, 2, 128) 204928 _________________________________________________________________ batch_normalization_69 (Batc (None, 2, 2, 128) 512 _________________________________________________________________ leaky_re_lu_81 (LeakyReLU) (None, 2, 2, 128) 0 _________________________________________________________________ flatten_12 (Flatten) (None, 512) 0 _________________________________________________________________ dense_4 (Dense) (None, 32) 16416 _________________________________________________________________ d_h3_lin (Dense) (None, 1) 33 ================================================================= Total params: 573,122 Trainable params: 286,337 Non-trainable params: 286,785 _________________________________________________________________ adversarial_model Model: &quot;model_12&quot; _________________________________________________________________ Layer (type) Output Shape Param # ================================================================= input_12 (InputLayer) (None, 28, 28, 1) 0 _________________________________________________________________ R (Model) (None, 28, 28, 1) 320993 _________________________________________________________________ D (Model) (None, 1) 286785 ================================================================= Total params: 607,778 Trainable params: 320,545 Non-trainable params: 287,233 _________________________________________________________________ /home/dolphin/.virtualenvs/bio/lib/python3.6/site-packages/keras/engine/training.py:297: UserWarning: Discrepancy between trainable weights and collected trainable weights, did you set `mod
…
